…
2018-09-24 22:03:36.594714: I tensorflow/core/common_runtime/gpu/gpu_device.cc:1045] Creating TensorFlow device (/gpu:0) -> (device: 0, name: Tesla K80, pci bus id: 0000:00:1e.0)
(86, 9600) (86,)
(1162, 9600) (1162,)
(1250, 9600) (1250,)
(1223, 9600) (1223,)
(835, 9600) (835,)
(896, 9600) (896,)
(9, 9600) (9,)
(138, 9600) (138,)
(94, 9600) (94,)
(65, 9600) (65,)
(81, 9600) (81,)
(113, 9600) (113,)
____________________________________________________________________________________________________
Layer (type)                     Output Shape          Param #     Connected to                     
====================================================================================================
input_1 (InputLayer)             (None, 32, 300, 1)    0                                            
____________________________________________________________________________________________________
conv2d_1 (Conv2D)                (None, 31, 1, 500)    300500      input_1[0][0]                    
____________________________________________________________________________________________________
conv2d_2 (Conv2D)                (None, 30, 1, 500)    450500      input_1[0][0]                    
____________________________________________________________________________________________________
conv2d_3 (Conv2D)                (None, 29, 1, 500)    600500      input_1[0][0]                    
____________________________________________________________________________________________________
max_pooling2d_1 (MaxPooling2D)   (None, 1, 1, 500)     0           conv2d_1[0][0]                   
____________________________________________________________________________________________________
max_pooling2d_2 (MaxPooling2D)   (None, 1, 1, 500)     0           conv2d_2[0][0]                   
____________________________________________________________________________________________________
max_pooling2d_3 (MaxPooling2D)   (None, 1, 1, 500)     0           conv2d_3[0][0]                   
____________________________________________________________________________________________________
merge_1 (Merge)                  (None, 1, 1, 1500)    0           max_pooling2d_1[0][0]            
                                                                   max_pooling2d_2[0][0]            
                                                                   max_pooling2d_3[0][0]            
____________________________________________________________________________________________________
flatten_1 (Flatten)              (None, 1500)          0           merge_1[0][0]                    
____________________________________________________________________________________________________
dense_1 (Dense)                  (None, 128)           192128      flatten_1[0][0]                  
____________________________________________________________________________________________________
dropout_1 (Dropout)              (None, 128)           0           dense_1[0][0]                    
____________________________________________________________________________________________________
dense_2 (Dense)                  (None, 64)            8256        dropout_1[0][0]                  
____________________________________________________________________________________________________
dropout_2 (Dropout)              (None, 64)            0           dense_2[0][0]                    
____________________________________________________________________________________________________
dense_3 (Dense)                  (None, 6)             390         dropout_2[0][0]                  
====================================================================================================
Total params: 1,552,274
Trainable params: 1,552,274
Non-trainable params: 0
____________________________________________________________________________________________________
Epoch 1/10
  50/5452 [..............................] - ETA: 101s - loss: 1.78
…
