…
> training <main> ...
>> MAIN-category
>> loading GoogleNews-vectors-negative300.bin ...
>> making dataset / building model...
TRAIN ::  loc.txt (835, 9600) (835,) 835
TEST ::  loc.txt (81, 9600) (81,) 81
TRAIN ::  enty.txt (1250, 9600) (1250,) 1250
TEST ::  enty.txt (94, 9600) (94,) 94
TRAIN ::  hum.txt (1223, 9600) (1223,) 1223
TEST ::  hum.txt (65, 9600) (65,) 65
TRAIN ::  num.txt (896, 9600) (896,) 896
TEST ::  num.txt (113, 9600) (113,) 113
TRAIN ::  abbr.txt (86, 9600) (86,) 86
TEST ::  abbr.txt (9, 9600) (9,) 9
TRAIN ::  desc.txt (1162, 9600) (1162,) 1162
TEST ::  desc.txt (138, 9600) (138,) 138
x_train: (5452, 9600)  - y_train: (5452,) - train_questions: 5452
x_test: (500, 9600)  - y_test: (500,) - test_questions: 500
x_train: (5452, 32, 300, 1)  - y_train: (5452, 6) - train_questions: 5452
x_test: (500, 32, 300, 1)  - y_test: (500, 6) - test_questions: 500
__________________________________________________________________________________________________
Layer (type)                    Output Shape         Param #     Connected to                     
==================================================================================================
input_1 (InputLayer)            (None, 32, 300, 1)   0                                            
__________________________________________________________________________________________________
conv2d_1 (Conv2D)               (None, 31, 1, 500)   300500      input_1[0][0]                    
__________________________________________________________________________________________________
conv2d_2 (Conv2D)               (None, 30, 1, 500)   450500      input_1[0][0]                    
__________________________________________________________________________________________________
conv2d_3 (Conv2D)               (None, 29, 1, 500)   600500      input_1[0][0]                    
__________________________________________________________________________________________________
conv2d_4 (Conv2D)               (None, 28, 1, 500)   750500      input_1[0][0]                    
__________________________________________________________________________________________________
max_pooling2d_1 (MaxPooling2D)  (None, 1, 1, 500)    0           conv2d_1[0][0]                   
__________________________________________________________________________________________________
max_pooling2d_2 (MaxPooling2D)  (None, 1, 1, 500)    0           conv2d_2[0][0]                   
__________________________________________________________________________________________________
max_pooling2d_3 (MaxPooling2D)  (None, 1, 1, 500)    0           conv2d_3[0][0]                   
__________________________________________________________________________________________________
max_pooling2d_4 (MaxPooling2D)  (None, 1, 1, 500)    0           conv2d_4[0][0]                   
__________________________________________________________________________________________________
concatenate_1 (Concatenate)     (None, 1, 1, 2000)   0           max_pooling2d_1[0][0]            
                                                                 max_pooling2d_2[0][0]            
                                                                 max_pooling2d_3[0][0]            
                                                                 max_pooling2d_4[0][0]            
__________________________________________________________________________________________________
flatten_1 (Flatten)             (None, 2000)         0           concatenate_1[0][0]              
__________________________________________________________________________________________________
dense_1 (Dense)                 (None, 128)          256128      flatten_1[0][0]                  
__________________________________________________________________________________________________
dropout_1 (Dropout)             (None, 128)          0           dense_1[0][0]                    
__________________________________________________________________________________________________
dense_2 (Dense)                 (None, 64)           8256        dropout_1[0][0]                  
__________________________________________________________________________________________________
dropout_2 (Dropout)             (None, 64)           0           dense_2[0][0]                    
__________________________________________________________________________________________________
dense_3 (Dense)                 (None, 6)            390         dropout_2[0][0]                  
==================================================================================================
Total params: 2,366,774
Trainable params: 2,366,774
Non-trainable params: 0
__________________________________________________________________________________________________
>> TRAINING ...
Train on 5452 samples, validate on 500 samples
Epoch 1/200

  50/5452 [..............................] - ETA: 3:34 - loss: 1.7991 - acc: 0.1600
…
Using TensorFlow backend.

Epoch 00042: val_acc did not improve from 0.93400
Epoch 00042: early stopping
>> TEST ...
Test Accuracy: 0.934
[[ 78   1   1   0   0   1]
 [  0  78   6   2   0   8]
 [  0   1  64   0   0   0]
 [  2   3   0 106   0   2]
 [  0   0   0   0   8   1]
 [  0   3   0   1   1 133]]
> training sub-category <abbreviatio>n ..
>> sub-category: abbr
>> loading GoogleNews-vectors-negative300.bin ...
>> making dataset / building model...
TRAIN ::  abb.txt (16, 9600) (16,) 16
TEST ::  abb.txt (1, 9600) (1,) 1
TRAIN ::  exp.txt (70, 9600) (70,) 70
TEST ::  exp.txt (8, 9600) (8,) 8
x_train: (86, 9600)  - y_train: (86,) - train_questions: 86
x_test: (9, 9600)  - y_test: (9,) - test_questions: 9
x_train: (86, 32, 300, 1)  - y_train: (86, 2) - train_questions: 86
x_test: (9, 32, 300, 1)  - y_test: (9, 2) - test_questions: 9
__________________________________________________________________________________________________
Layer (type)                    Output Shape         Param #     Connected to                     
==================================================================================================
input_1 (InputLayer)            (None, 32, 300, 1)   0                                            
__________________________________________________________________________________________________
conv2d_1 (Conv2D)               (None, 31, 1, 500)   300500      input_1[0][0]                    
__________________________________________________________________________________________________
conv2d_2 (Conv2D)               (None, 30, 1, 500)   450500      input_1[0][0]                    
__________________________________________________________________________________________________
conv2d_3 (Conv2D)               (None, 29, 1, 500)   600500      input_1[0][0]                    
__________________________________________________________________________________________________
conv2d_4 (Conv2D)               (None, 28, 1, 500)   750500      input_1[0][0]                    
__________________________________________________________________________________________________
max_pooling2d_1 (MaxPooling2D)  (None, 1, 1, 500)    0           conv2d_1[0][0]                   
__________________________________________________________________________________________________
max_pooling2d_2 (MaxPooling2D)  (None, 1, 1, 500)    0           conv2d_2[0][0]                   
__________________________________________________________________________________________________
max_pooling2d_3 (MaxPooling2D)  (None, 1, 1, 500)    0           conv2d_3[0][0]                   
__________________________________________________________________________________________________
max_pooling2d_4 (MaxPooling2D)  (None, 1, 1, 500)    0           conv2d_4[0][0]                   
__________________________________________________________________________________________________
concatenate_1 (Concatenate)     (None, 1, 1, 2000)   0           max_pooling2d_1[0][0]            
                                                                 max_pooling2d_2[0][0]            
                                                                 max_pooling2d_3[0][0]            
                                                                 max_pooling2d_4[0][0]            
__________________________________________________________________________________________________
flatten_1 (Flatten)             (None, 2000)         0           concatenate_1[0][0]              
__________________________________________________________________________________________________
dense_1 (Dense)                 (None, 128)          256128      flatten_1[0][0]                  
__________________________________________________________________________________________________
dropout_1 (Dropout)             (None, 128)          0           dense_1[0][0]                    
__________________________________________________________________________________________________
dense_2 (Dense)                 (None, 64)           8256        dropout_1[0][0]                  
__________________________________________________________________________________________________
dropout_2 (Dropout)             (None, 64)           0           dense_2[0][0]                    
__________________________________________________________________________________________________
dense_3 (Dense)                 (None, 2)            130         dropout_2[0][0]                  
==================================================================================================
Total params: 2,366,514
Trainable params: 2,366,514
Non-trainable params: 0
__________________________________________________________________________________________________
>> TRAINING ...
Train on 86 samples, validate on 9 samples
Epoch 1/200

50/86 [================>.............] - ETA: 1s - loss: 0.7028 - acc: 0.4000
…
TRAIN ::  substance.txt (41, 9600) (41,) 41
TEST ::  substance.txt (15, 9600) (15,) 15
TRAIN ::  body.txt (16, 9600) (16,) 16
TEST ::  body.txt (2, 9600) (2,) 2
TRAIN ::  veh.txt (27, 9600) (27,) 27
TEST ::  veh.txt (4, 9600) (4,) 4
TRAIN ::  instru.txt (10, 9600) (10,) 10
TEST ::  instru.txt (1, 9600) (1,) 1
TRAIN ::  event.txt (56, 9600) (56,) 56
TEST ::  event.txt (2, 9600) (2,) 2
TRAIN ::  sport.txt (62, 9600) (62,) 62
TEST ::  sport.txt (1, 9600) (1,) 1
TRAIN ::  techmeth.txt (38, 9600) (38,) 38
TEST ::  techmeth.txt (1, 9600) (1,) 1
TRAIN ::  other.txt (217, 9600) (217,) 217
TEST ::  other.txt (12, 9600) (12,) 12
x_train: (1250, 9600)  - y_train: (1250,) - train_questions: 1250
x_test: (94, 9600)  - y_test: (94,) - test_questions: 94
x_train: (1250, 32, 300, 1)  - y_train: (1250, 22) - train_questions: 1250
x_test: (94, 32, 300, 1)  - y_test: (94, 22) - test_questions: 94
__________________________________________________________________________________________________
Layer (type)                    Output Shape         Param #     Connected to                     
==================================================================================================
input_1 (InputLayer)            (None, 32, 300, 1)   0                                            
__________________________________________________________________________________________________
conv2d_1 (Conv2D)               (None, 31, 1, 500)   300500      input_1[0][0]                    
__________________________________________________________________________________________________
conv2d_2 (Conv2D)               (None, 30, 1, 500)   450500      input_1[0][0]                    
__________________________________________________________________________________________________
conv2d_3 (Conv2D)               (None, 29, 1, 500)   600500      input_1[0][0]                    
__________________________________________________________________________________________________
conv2d_4 (Conv2D)               (None, 28, 1, 500)   750500      input_1[0][0]                    
__________________________________________________________________________________________________
max_pooling2d_1 (MaxPooling2D)  (None, 1, 1, 500)    0           conv2d_1[0][0]                   
__________________________________________________________________________________________________
max_pooling2d_2 (MaxPooling2D)  (None, 1, 1, 500)    0           conv2d_2[0][0]                   
__________________________________________________________________________________________________
max_pooling2d_3 (MaxPooling2D)  (None, 1, 1, 500)    0           conv2d_3[0][0]                   
__________________________________________________________________________________________________
max_pooling2d_4 (MaxPooling2D)  (None, 1, 1, 500)    0           conv2d_4[0][0]                   
__________________________________________________________________________________________________
concatenate_1 (Concatenate)     (None, 1, 1, 2000)   0           max_pooling2d_1[0][0]            
                                                                 max_pooling2d_2[0][0]            
                                                                 max_pooling2d_3[0][0]            
                                                                 max_pooling2d_4[0][0]            
__________________________________________________________________________________________________
flatten_1 (Flatten)             (None, 2000)         0           concatenate_1[0][0]              
__________________________________________________________________________________________________
dense_1 (Dense)                 (None, 128)          256128      flatten_1[0][0]                  
__________________________________________________________________________________________________
dropout_1 (Dropout)             (None, 128)          0           dense_1[0][0]                    
__________________________________________________________________________________________________
dense_2 (Dense)                 (None, 64)           8256        dropout_1[0][0]                  
__________________________________________________________________________________________________
dropout_2 (Dropout)             (None, 64)           0           dense_2[0][0]                    
__________________________________________________________________________________________________
dense_3 (Dense)                 (None, 22)           1430        dropout_2[0][0]                  
==================================================================================================
Total params: 2,367,814
Trainable params: 2,367,814
Non-trainable params: 0
__________________________________________________________________________________________________
>> TRAINING ...
Train on 1250 samples, validate on 94 samples
Epoch 1/200

  50/1250 [>.............................] - ETA: 46s - loss: 3.1019 - acc: 0.0400
…
 [ 0  0  0  0  0  0  0  0  0  0  0  0  0  0  0  1  0  0]
 [ 0  0  0  0  0  0  0  0  0  0  0  0  0  0  0  0  1  0]
 [ 0  0  0  0  0  1  0  0  0  0  1  0  0  0  0  1  1  8]]
> training sub-category <description> ..
>> sub-category: desc
>> loading GoogleNews-vectors-negative300.bin ...
>> making dataset / building model...
TRAIN ::  def.txt (421, 9600) (421,) 421
TEST ::  def.txt (123, 9600) (123,) 123
TRAIN ::  manner.txt (276, 9600) (276,) 276
TEST ::  manner.txt (2, 9600) (2,) 2
TRAIN ::  desc.txt (274, 9600) (274,) 274
TEST ::  desc.txt (7, 9600) (7,) 7
TRAIN ::  reason.txt (191, 9600) (191,) 191
TEST ::  reason.txt (6, 9600) (6,) 6
x_train: (1162, 9600)  - y_train: (1162,) - train_questions: 1162
x_test: (138, 9600)  - y_test: (138,) - test_questions: 138
x_train: (1162, 32, 300, 1)  - y_train: (1162, 4) - train_questions: 1162
x_test: (138, 32, 300, 1)  - y_test: (138, 4) - test_questions: 138
__________________________________________________________________________________________________
Layer (type)                    Output Shape         Param #     Connected to                     
==================================================================================================
input_1 (InputLayer)            (None, 32, 300, 1)   0                                            
__________________________________________________________________________________________________
conv2d_1 (Conv2D)               (None, 31, 1, 500)   300500      input_1[0][0]                    
__________________________________________________________________________________________________
conv2d_2 (Conv2D)               (None, 30, 1, 500)   450500      input_1[0][0]                    
__________________________________________________________________________________________________
conv2d_3 (Conv2D)               (None, 29, 1, 500)   600500      input_1[0][0]                    
__________________________________________________________________________________________________
conv2d_4 (Conv2D)               (None, 28, 1, 500)   750500      input_1[0][0]                    
__________________________________________________________________________________________________
max_pooling2d_1 (MaxPooling2D)  (None, 1, 1, 500)    0           conv2d_1[0][0]                   
__________________________________________________________________________________________________
max_pooling2d_2 (MaxPooling2D)  (None, 1, 1, 500)    0           conv2d_2[0][0]                   
__________________________________________________________________________________________________
max_pooling2d_3 (MaxPooling2D)  (None, 1, 1, 500)    0           conv2d_3[0][0]                   
__________________________________________________________________________________________________
max_pooling2d_4 (MaxPooling2D)  (None, 1, 1, 500)    0           conv2d_4[0][0]                   
__________________________________________________________________________________________________
concatenate_1 (Concatenate)     (None, 1, 1, 2000)   0           max_pooling2d_1[0][0]            
                                                                 max_pooling2d_2[0][0]            
                                                                 max_pooling2d_3[0][0]            
                                                                 max_pooling2d_4[0][0]            
__________________________________________________________________________________________________
flatten_1 (Flatten)             (None, 2000)         0           concatenate_1[0][0]              
__________________________________________________________________________________________________
dense_1 (Dense)                 (None, 128)          256128      flatten_1[0][0]                  
__________________________________________________________________________________________________
dropout_1 (Dropout)             (None, 128)          0           dense_1[0][0]                    
__________________________________________________________________________________________________
dense_2 (Dense)                 (None, 64)           8256        dropout_1[0][0]                  
__________________________________________________________________________________________________
dropout_2 (Dropout)             (None, 64)           0           dense_2[0][0]                    
__________________________________________________________________________________________________
dense_3 (Dense)                 (None, 4)            260         dropout_2[0][0]                  
==================================================================================================
Total params: 2,366,644
Trainable params: 2,366,644
Non-trainable params: 0
__________________________________________________________________________________________________
>> TRAINING ...
Train on 1162 samples, validate on 138 samples
Epoch 1/200

  50/1162 [>.............................] - ETA: 44s - loss: 1.3818 - acc: 0.2200
…
1162/1162 [==============================] - 1s 635us/step - loss: 0.0055 - acc: 1.0000 - val_loss: 0.0126 - val_acc: 0.9928
Using TensorFlow backend.

Epoch 00021: val_acc did not improve from 1.00000
Epoch 00021: early stopping
>> TEST ...
Test Accuracy: 1.0
[[123   0   0   0]
 [  0   2   0   0]
 [  0   0   7   0]
 [  0   0   0   6]]
> training sub-category <human> ..
>> sub-category: hum
>> loading GoogleNews-vectors-negative300.bin ...
>> making dataset / building model...
TRAIN ::  ind.txt (962, 9600) (962,) 962
TRAIN ::  title.txt (25, 9600) (25,) 25
TRAIN ::  gr.txt (189, 9600) (189,) 189
TEST ::  gr.txt (6, 9600) (6,) 6
TRAIN ::  desc.txt (47, 9600) (47,) 47
TEST ::  desc.txt (3, 9600) (3,) 3
x_train: (1223, 9600)  - y_train: (1223,) - train_questions: 1223
x_test: (9, 9600)  - y_test: (9,) - test_questions: 9
x_train: (1223, 32, 300, 1)  - y_train: (1223, 4) - train_questions: 1223
x_test: (9, 32, 300, 1)  - y_test: (9, 4) - test_questions: 9
__________________________________________________________________________________________________
Layer (type)                    Output Shape         Param #     Connected to                     
==================================================================================================
input_1 (InputLayer)            (None, 32, 300, 1)   0                                            
__________________________________________________________________________________________________
conv2d_1 (Conv2D)               (None, 31, 1, 500)   300500      input_1[0][0]                    
__________________________________________________________________________________________________
conv2d_2 (Conv2D)               (None, 30, 1, 500)   450500      input_1[0][0]                    
__________________________________________________________________________________________________
conv2d_3 (Conv2D)               (None, 29, 1, 500)   600500      input_1[0][0]                    
__________________________________________________________________________________________________
conv2d_4 (Conv2D)               (None, 28, 1, 500)   750500      input_1[0][0]                    
__________________________________________________________________________________________________
max_pooling2d_1 (MaxPooling2D)  (None, 1, 1, 500)    0           conv2d_1[0][0]                   
__________________________________________________________________________________________________
max_pooling2d_2 (MaxPooling2D)  (None, 1, 1, 500)    0           conv2d_2[0][0]                   
__________________________________________________________________________________________________
max_pooling2d_3 (MaxPooling2D)  (None, 1, 1, 500)    0           conv2d_3[0][0]                   
__________________________________________________________________________________________________
max_pooling2d_4 (MaxPooling2D)  (None, 1, 1, 500)    0           conv2d_4[0][0]                   
__________________________________________________________________________________________________
concatenate_1 (Concatenate)     (None, 1, 1, 2000)   0           max_pooling2d_1[0][0]            
                                                                 max_pooling2d_2[0][0]            
                                                                 max_pooling2d_3[0][0]            
                                                                 max_pooling2d_4[0][0]            
__________________________________________________________________________________________________
flatten_1 (Flatten)             (None, 2000)         0           concatenate_1[0][0]              
__________________________________________________________________________________________________
dense_1 (Dense)                 (None, 128)          256128      flatten_1[0][0]                  
__________________________________________________________________________________________________
dropout_1 (Dropout)             (None, 128)          0           dense_1[0][0]                    
__________________________________________________________________________________________________
dense_2 (Dense)                 (None, 64)           8256        dropout_1[0][0]                  
__________________________________________________________________________________________________
dropout_2 (Dropout)             (None, 64)           0           dense_2[0][0]                    
__________________________________________________________________________________________________
dense_3 (Dense)                 (None, 4)            260         dropout_2[0][0]                  
==================================================================================================
Total params: 2,366,644
Trainable params: 2,366,644
Non-trainable params: 0
__________________________________________________________________________________________________
>> TRAINING ...
Train on 1223 samples, validate on 9 samples
Epoch 1/200

  50/1223 [>.............................] - ETA: 46s - loss: 1.3643 - acc: 0.4600
…
1223/1223 [==============================] - 1s 613us/step - loss: 0.0029 - acc: 1.0000 - val_loss: 0.2395 - val_acc: 0.8889
Using TensorFlow backend.

Epoch 00022: val_acc did not improve from 0.88889
Epoch 00022: early stopping
>> TEST ...
Test Accuracy: 0.8888888888888888
[[0 0 0]
 [1 5 0]
 [0 0 3]]
> training sub-category <location> ..
>> sub-category: loc
>> loading GoogleNews-vectors-negative300.bin ...
>> making dataset / building model...
TRAIN ::  country.txt (155, 9600) (155,) 155
TRAIN ::  state.txt (66, 9600) (66,) 66
TRAIN ::  city.txt (129, 9600) (129,) 129
TEST ::  city.txt (18, 9600) (18,) 18
TRAIN ::  mount.txt (21, 9600) (21,) 21
TRAIN ::  other.txt (464, 9600) (464,) 464
x_train: (835, 9600)  - y_train: (835,) - train_questions: 835
x_test: (18, 9600)  - y_test: (18,) - test_questions: 18
x_train: (835, 32, 300, 1)  - y_train: (835, 5) - train_questions: 835
x_test: (18, 32, 300, 1)  - y_test: (18, 5) - test_questions: 18
__________________________________________________________________________________________________
Layer (type)                    Output Shape         Param #     Connected to                     
==================================================================================================
input_1 (InputLayer)            (None, 32, 300, 1)   0                                            
__________________________________________________________________________________________________
conv2d_1 (Conv2D)               (None, 31, 1, 500)   300500      input_1[0][0]                    
__________________________________________________________________________________________________
conv2d_2 (Conv2D)               (None, 30, 1, 500)   450500      input_1[0][0]                    
__________________________________________________________________________________________________
conv2d_3 (Conv2D)               (None, 29, 1, 500)   600500      input_1[0][0]                    
__________________________________________________________________________________________________
conv2d_4 (Conv2D)               (None, 28, 1, 500)   750500      input_1[0][0]                    
__________________________________________________________________________________________________
max_pooling2d_1 (MaxPooling2D)  (None, 1, 1, 500)    0           conv2d_1[0][0]                   
__________________________________________________________________________________________________
max_pooling2d_2 (MaxPooling2D)  (None, 1, 1, 500)    0           conv2d_2[0][0]                   
__________________________________________________________________________________________________
max_pooling2d_3 (MaxPooling2D)  (None, 1, 1, 500)    0           conv2d_3[0][0]                   
__________________________________________________________________________________________________
max_pooling2d_4 (MaxPooling2D)  (None, 1, 1, 500)    0           conv2d_4[0][0]                   
__________________________________________________________________________________________________
concatenate_1 (Concatenate)     (None, 1, 1, 2000)   0           max_pooling2d_1[0][0]            
                                                                 max_pooling2d_2[0][0]            
                                                                 max_pooling2d_3[0][0]            
                                                                 max_pooling2d_4[0][0]            
__________________________________________________________________________________________________
flatten_1 (Flatten)             (None, 2000)         0           concatenate_1[0][0]              
__________________________________________________________________________________________________
dense_1 (Dense)                 (None, 128)          256128      flatten_1[0][0]                  
__________________________________________________________________________________________________
dropout_1 (Dropout)             (None, 128)          0           dense_1[0][0]                    
__________________________________________________________________________________________________
dense_2 (Dense)                 (None, 64)           8256        dropout_1[0][0]                  
__________________________________________________________________________________________________
dropout_2 (Dropout)             (None, 64)           0           dense_2[0][0]                    
__________________________________________________________________________________________________
dense_3 (Dense)                 (None, 5)            325         dropout_2[0][0]                  
==================================================================================================
Total params: 2,366,709
Trainable params: 2,366,709
Non-trainable params: 0
__________________________________________________________________________________________________
>> TRAINING ...
Train on 835 samples, validate on 18 samples
Epoch 1/200

 50/835 [>.............................] - ETA: 32s - loss: 1.6087 - acc: 0.2200
…
TRAIN ::  speed.txt (9, 9600) (9,) 9
TEST ::  speed.txt (6, 9600) (6,) 6
TRAIN ::  count.txt (363, 9600) (363,) 363
TEST ::  count.txt (9, 9600) (9,) 9
TRAIN ::  temp.txt (8, 9600) (8,) 8
TEST ::  temp.txt (5, 9600) (5,) 5
TRAIN ::  perc.txt (27, 9600) (27,) 27
TEST ::  perc.txt (3, 9600) (3,) 3
TRAIN ::  weight.txt (11, 9600) (11,) 11
TEST ::  weight.txt (4, 9600) (4,) 4
TRAIN ::  ord.txt (6, 9600) (6,) 6
TRAIN ::  money.txt (71, 9600) (71,) 71
TEST ::  money.txt (3, 9600) (3,) 3
TRAIN ::  other.txt (52, 9600) (52,) 52
TEST ::  other.txt (12, 9600) (12,) 12
TRAIN ::  volsize.txt (13, 9600) (13,) 13
x_train: (896, 9600)  - y_train: (896,) - train_questions: 896
x_test: (113, 9600)  - y_test: (113,) - test_questions: 113
x_train: (896, 32, 300, 1)  - y_train: (896, 13) - train_questions: 896
x_test: (113, 32, 300, 1)  - y_test: (113, 13) - test_questions: 113
__________________________________________________________________________________________________
Layer (type)                    Output Shape         Param #     Connected to                     
==================================================================================================
input_1 (InputLayer)            (None, 32, 300, 1)   0                                            
__________________________________________________________________________________________________
conv2d_1 (Conv2D)               (None, 31, 1, 500)   300500      input_1[0][0]                    
__________________________________________________________________________________________________
conv2d_2 (Conv2D)               (None, 30, 1, 500)   450500      input_1[0][0]                    
__________________________________________________________________________________________________
conv2d_3 (Conv2D)               (None, 29, 1, 500)   600500      input_1[0][0]                    
__________________________________________________________________________________________________
conv2d_4 (Conv2D)               (None, 28, 1, 500)   750500      input_1[0][0]                    
__________________________________________________________________________________________________
max_pooling2d_1 (MaxPooling2D)  (None, 1, 1, 500)    0           conv2d_1[0][0]                   
__________________________________________________________________________________________________
max_pooling2d_2 (MaxPooling2D)  (None, 1, 1, 500)    0           conv2d_2[0][0]                   
__________________________________________________________________________________________________
max_pooling2d_3 (MaxPooling2D)  (None, 1, 1, 500)    0           conv2d_3[0][0]                   
__________________________________________________________________________________________________
max_pooling2d_4 (MaxPooling2D)  (None, 1, 1, 500)    0           conv2d_4[0][0]                   
__________________________________________________________________________________________________
concatenate_1 (Concatenate)     (None, 1, 1, 2000)   0           max_pooling2d_1[0][0]            
                                                                 max_pooling2d_2[0][0]            
                                                                 max_pooling2d_3[0][0]            
                                                                 max_pooling2d_4[0][0]            
__________________________________________________________________________________________________
flatten_1 (Flatten)             (None, 2000)         0           concatenate_1[0][0]              
__________________________________________________________________________________________________
dense_1 (Dense)                 (None, 128)          256128      flatten_1[0][0]                  
__________________________________________________________________________________________________
dropout_1 (Dropout)             (None, 128)          0           dense_1[0][0]                    
__________________________________________________________________________________________________
dense_2 (Dense)                 (None, 64)           8256        dropout_1[0][0]                  
__________________________________________________________________________________________________
dropout_2 (Dropout)             (None, 64)           0           dense_2[0][0]                    
__________________________________________________________________________________________________
dense_3 (Dense)                 (None, 13)           845         dropout_2[0][0]                  
==================================================================================================
Total params: 2,367,229
Trainable params: 2,367,229
Non-trainable params: 0
__________________________________________________________________________________________________
>> TRAINING ...
Train on 896 samples, validate on 113 samples
Epoch 1/200

 50/896 [>.............................] - ETA: 33s - loss: 2.5612 - acc: 0.0600
…
